frontend_files/ci_project/chatbot/data.pth (torch, 5399 bytes, 6 tensors)

l1.weight f4 [8, 61]
000000 74 d9 21 be 5f fd c8 be 2e f5 60 be fe 04 1f be
       -0.15805608 -0.39255807 -0.21968529 -0.15529248
000010 57 66 37 be f8 a8 cb 3e 14 19 a3 3e 16 9e 88 be
       -0.17910133 0.3977735 0.3185507 -0.2668311
000020 b4 18 cb bd 12 d4 80 3e 92 9c ba 3c 6a bd 0b 3f
       -0.09916821 0.25161797 0.022779737 0.545859
000030 c8 cd a6 bb 81 24 9c 3e 1b 46 01 3f 12 42 9c 3e
       -0.005090449 0.304966 0.504976 0.30519158
000040 48 bb 31 be 55 10 55 be 24 2c e6 3e 22 21 0e 3e
       -0.17356598 -0.20807011 0.44955552 0.13879827
000050 0a b9 44 bd ac f9 13 3f be e0 9a 3d b0 43 18 3f
       -0.04802803 0.57802844 0.075623974 0.5947828
000060 c7 b1 8d 3e 8a 61 87 be 92 19 26 3f 8e 70 f0 3e
       0.27674696 -0.26441604 0.6488277 0.46960872
000070 80 77 9d 3e f8 38 95 be aa ad c9 3d 93 75 04 be
       0.30755234 -0.29145026 0.09847577 -0.12935476
000080 d5 78 cc bd 81 c6 da 3d d2 5b 84 be 0a 67 92 3d
       -0.099839844 0.10682393 -0.25851303 0.071485594
000090 be c6 4e 3d 06 8b e8 3e 3a 7a d1 bd e3 c4 10 bd
       0.050482504 0.45418566 -0.10228391 -0.035344016
0000a0 f0 3a 63 bd d4 46 8f be c0 4e 9a be 97 3e 69 be
       -0.05547613 -0.27983725 -0.30138206 -0.22777782
0000b0 cb 39 50 be 14 6e 15 3f 06 97 0e bd e9 ef 3e be
       -0.20334546 0.5837109 -0.034811996 -0.18646206
0000c0 bb 48 d2 bd 3f 86 c0 bd b0 f1 71 3e 74 36 11 be
       -0.102677785 -0.094006054 0.23627353 -0.14180928
0000d0 0f 6b 03 bf df 37 5b be 3d 62 af 3e 8c 05 2c 3e
       -0.51335233 -0.21408032 0.34254637 0.16798991
0000e0 71 66 c4 3d 84 a8 9f bc 4b 22 ef 3e 10 54 1e be
       0.09589852 -0.019489534 0.4670585 -0.15461755
0000f0 d7 4e 91 bc 08 c4 c1 be f1 62 e1 3e e8 36 ad be
       -0.01773779 -0.37844872 0.440208 -0.33830953
000100 a9 ca 19 3f b5 09 68 3e dc 9b 0f 3f 5d 29 3a 3f
       0.6007486 0.22659953 0.560972 0.72719365
000110 6d df 7f be ab e9 46 3e 63 55 4e be 51 ed f8 be
       -0.24987574 0.19425075 -0.2014976 -0.48618558
000120 3b 43 9c be 29 12 0e be 2f fc 23 bf a1 f5 c0 3e
       -0.30520043 -0.13874115 -0.64056677 0.376874
000130 f6 a6 f2 3d 83 78 b1 3e 5b 32 ea 3e 97 24 b2 3e
       0.118482515 0.34662256 0.45741543 0.3479354
000140 54 aa f3 be 6b 1d fe 3e c2 b2 0d 3f 9f 93 fc bc
       -0.47590888 0.4963182 0.5535089 -0.03083211
000150 b4 ac 03 3f 56 68 a9 3e e2 c1 82 3d 39 fe 18 3f
       0.514354 0.33087415 0.063846365 0.59762913
000160 27 a0 87 bd 3b 60 09 be 06 d7 91 be 9a 97 9a be
       -0.066223435 -0.13415615 -0.28484362 -0.30193788
000170 c1 6b c9 be 8c a2 87 be 41 34 7f 3e e8 14 f1 bd
       -0.39340022 -0.264912 0.24922277 -0.11771566
000180 18 4e 81 be f4 38 94 be 8f 43 e4 ba c8 63 04 3f
       -0.25254893 -0.28949702 -0.0017415154 0.51714754
000190 46 d3 53 be 44 02 e2 bd c0 d5 fe bd 19 a4 d1 be
       -0.20686063 -0.110355884 -0.12443113 -0.4094551
0001a0 65 b2 e8 3e a4 20 ec 3e a2 b9 37 be f0 c2 c7 bd
       0.45448604 0.46118653 -0.17941907 -0.09753978
0001b0 31 e9 d7 3e 6b 6d 64 be 05 5e 9b bd 4c 59 b0 bd
       0.42170098 -0.22307365 -0.07586292 -0.08610782
0001c0 23 8a 92 be 1e b4 5d 3f 8f 22 b4 3e 84 cd e9 3d
       -0.28621015 0.8660296 0.35182616 0.11416152
0001d0 39 40 d9 bd 18 64 ea bd b5 3e c8 3e 51 76 c9 be
       -0.106079526 -0.114448726 0.39110342 -0.3934808
0001e0 79 63 b8 be d2 3f bd 3d 45 be 36 3e ab ca 1b 3f
       -0.36013392 0.092406884 0.1784602 0.6085612
0001f0 12 23 81 3c 05 76 02 3f aa c5 b7 3e a1 66 12 3f
       0.015763793 0.50961334 0.35892993 0.5718785
000200 13 9a 25 3f 25 05 9f 3b 7e dc b2 3e 1b f9 8c be
       0.64688224 0.004852908 0.34933847 -0.27533802
000210 97 fb 1b 3f ff e7 25 bf 4e 2e d5 3e 40 75 04 bf
       0.6093077 -0.6480712 0.4163689 -0.5174141
000220 28 3f b6 3e cb f5 c7 bc f1 33 0d 3f cf f4 ad 3e
       0.3559506 -0.024409195 0.5515738 0.33975837
000230 5d 0e 93 3e d5 94 15 3f 52 20 a9 3e b3 00 e2 3e
       0.28721896 0.58430225 0.3303247 0.44141158
000240 b5 9c 1b be 5c fa b3 3e 6f 77 a6 3e c9 3b 32 bd
       -0.15196498 0.35151947 0.32512996 -0.043514047
000250 21 97 c0 3e a4 c9 8c be 06 28 49 bd d3 11 d3 bb
       0.37615302 -0.2749759 -0.049110435 -0.006441334
000260 7d 0f ed 3e 03 d3 54 3e 2b aa 70 3d 96 94 11 3e
       0.4630088 0.2078362 0.058756035 0.14216837
000270 3c 6c 35 be 16 fb d0 3e 0f fb 6b 3e 0a a8 2f be
       -0.1771707 0.40816563 0.2304499 -0.17153946
000280 a4 a4 ad 3e 1c 17 38 be 05 a1 9f be 12 37 6f bc
       0.33914673 -0.17977566 -0.31177536 -0.014600532
000290 c4 58 0f 3d 6b e1 e2 3e de fa 02 3f 82 19 cc be
       0.034996763 0.44312605 0.5116404 -0.3986321
0002a0 c4 8b 07 be b9 26 13 3f b1 ee ad 3e c7 2b c7 be
       -0.1323691 0.5748096 0.3397117 -0.38900587
0002b0 00 80 3c be 98 1e 05 3e 00 65 4d 3f cd 03 eb 3e
       -0.18408203 0.12999952 0.8023224 0.45901337
0002c0 56 53 ce 3e 59 2f 9a 3e a6 db d9 3e a6 b8 f3 3e
       0.40297955 0.30114248 0.4255039 0.47601813
0002d0 ca 21 27 bf 10 c1 a0 3c b7 e3 95 3e 21 c2 2a 3f
       -0.65285933 0.01962331 0.29275295 0.6670247
0002e0 40 64 21 3f 09 d6 18 3f 7b 5a aa 3e ad 82 1c 3f
       0.63043594 0.5970159 0.33272156 0.61136895
0002f0 d2 95 0b bf 9c 10 d4 bd 0a e9 26 3f 3d 6c 00 3f
       -0.5452548 -0.103547305 0.6519934 0.5016516
000300 5e 03 a7 3e 74 af 3b 3f 7b 26 67 3e 47 64 eb 3d
       0.32619756 0.73314595 0.22573273 0.11493736
000310 27 f7 04 3f 74 76 9e be 70 8a 48 be 9d 08 16 3f
       0.51939625 -0.30949748 -0.1958406 0.5860689
000320 ff 86 cb be 51 b3 9c be c2 96 2d 3f 94 90 86 be
       -0.3975143 -0.30605558 0.67808163 -0.2628218
000330 ee 9e 01 bf 87 c9 01 3f 81 6b 07 bf a1 91 c5 be
       -0.5063313 0.5069813 -0.5289841 -0.3858767
000340 09 01 9a 3e 67 32 f3 be a9 6a aa be 8d d3 9b 3e
       0.30078915 -0.4749939 -0.332845 0.30434838
000350 d2 ab 32 3f db ed 30 3e 5f 85 30 3f 81 ce 2c 3f
       0.69793427 0.17278235 0.6895351 0.675026
000360 3e a2 02 be df 78 1c 3f bd 56 5c 3e f6 e8 da 3d
       -0.12757203 0.61121935 0.21517463 0.10688965
000370 4f 17 f1 bd 10 ad 4f be a5 0d c2 3e 0b 32 9e 3e
       -0.11772024 -0.20280862 0.37901035 0.30897555
000380 13 3c c1 3e 0d 53 3e 3f 08 b9 41 3e a0 5c 5d be
       0.37741145 0.74345475 0.1891824 -0.21617365
000390 7c 82 d8 be c3 4b d6 3e 2a ba bf be 19 90 73 3e
       -0.42287052 0.41854677 -0.3744672 0.23785438
0003a0 35 fe bb 3e 24 64 09 bc 1e a0 0e 3f da d7 83 3f
       0.36717382 -0.008385692 0.5571307 1.0300248
0003b0 56 8b d3 3e 93 ff b4 bd f7 f5 d0 3e 3f 7b c0 3e
       0.41317242 -0.088378094 0.40812656 0.3759403
0003c0 eb fd 97 be 98 82 f3 3e 5d 91 28 3f 7f 42 18 3e
       -0.29685912 0.47560573 0.65846807 0.14869116
0003d0 48 2f 0a 3f da b3 e7 bd 53 2a 0a 3f 2a 5e bf 3e
       0.53978395 -0.11313601 0.5397083 0.3737653
0003e0 26 4a 14 3f 3d 1c ad be c2 75 4f be 0e 43 00 3f
       0.5792564 -0.33810607 -0.20259765 0.5010232
0003f0 d9 11 49 3e ae e1 e5 3e e3 33 03 3f a1 ca 09 3f
       0.19635715 0.44898742 0.5125105 0.5382481

l1.bias f4 [8]
000000 e5 f2 07 3f 36 e1 02 3f 1d 5d 87 3f aa 93 1d 3f
       0.53105 0.51124895 1.0575291 0.6155344
000010 73 ac c0 3e 76 e9 07 3f 17 7a 32 3f 37 95 41 3f
       0.37631568 0.5309061 0.69717544 0.7561831

l2.weight f4 [8, 8]
000000 c0 ef 51 bf 29 a6 ab be 7a e1 85 3f 0e 6f a1 3f
       -0.82006454 -0.33525208 1.0459435 1.2612016
000010 78 86 8a 3f 95 2f 84 bf 83 17 45 bf f0 be 2c 3f
       1.0822287 -1.0327021 -0.76989 0.6747885
000020 ea 51 79 3f 5f 16 61 3f 48 8c 82 3f 44 d6 94 bd
       0.97390616 0.8792476 1.019906 -0.072674304
000030 1b 51 52 bf 1d d7 61 3e 5c ab 89 3f 39 75 65 3f
       -0.8215501 0.22054715 1.075542 0.8963199
000040 96 eb 24 3e 63 d8 08 bf fe b4 4e be b2 e3 85 3f
       0.16105494 -0.5345518 -0.2018623 1.0460112
000050 b7 c7 72 3f dc 80 dd 3e 5f 83 0f be 08 13 9c bd
       0.9483599 0.43262374 -0.14014958 -0.076208174
000060 f9 23 82 3e 79 e9 5a be c2 e3 8e 3e 1f 49 0e be
       0.2541807 -0.21378125 0.2790814 -0.13895081
000070 51 b4 3b 3d 78 76 b9 be d5 96 67 be a9 d9 af be
       0.04582626 -0.36223197 -0.22616132 -0.3434575
000080 a9 81 92 3f d7 26 4f bf f9 c8 67 bf ed 00 c2 3d
       1.1445819 -0.8091864 -0.90541035 0.09472833
000090 7e 17 72 3f 52 83 84 3f 85 8b 29 3f a1 59 59 3f
       0.94567096 1.0352576 0.66228515 0.8490239
0000a0 1e ff 5c bf d5 e0 76 3f 3d 30 2f 3f 61 a9 ac 3e
       -0.8632678 0.96436816 0.6843298 0.33722976
0000b0 f2 e3 bd 3d c2 0c 78 3f 54 b0 04 3f d8 12 51 bf
       0.09271993 0.96894467 0.51831555 -0.8166938
0000c0 d3 52 a1 3f 69 35 45 3e 0d 4b ca 3e c4 9f 25 bf
       1.2603401 0.19258656 0.39510384 -0.6469691
0000d0 37 44 09 bf d9 7c 17 3f 5b 6f a8 3e d4 cc 4c 3f
       -0.5361971 0.5917488 0.32897457 0.8000004
0000e0 03 0d 8d bf be 58 b6 3e ec db e2 3e 70 39 14 3f
       -1.1019596 0.3561458 0.44308412 0.5790014
0000f0 7b bf 23 3f 73 04 5f 3f 35 a2 cf 3e 4b a5 56 bf
       0.6396405 0.87116164 0.40553442 -0.8384597

l2.bias f4 [8]
000000 80 3b 49 3f 8f 59 50 3f 07 95 c7 3e ff d2 74 be
       0.78606415 0.81386656 0.38980886 -0.23908614
000010 b9 47 a9 3e 6c 1c 31 3e 6b e0 ba bd de 7d 95 bd
       0.33062533 0.17295998 -0.091248356 -0.07299398

l3.weight f4 [8, 8]
000000 6b fd 71 3f 08 a6 5f 3e ab ec 8c 3c 11 fd 86 be
       0.9452731 0.2184068 0.017202696 -0.2636495
000010 1c a7 51 be 69 ba a3 bf a8 c7 34 3e 6f 48 a1 bf
       -0.20473903 -1.2791263 0.17654288 -1.260023
000020 0c 1c 29 bf e0 77 4f 3f 29 9e 98 bf 51 cf 22 be
       -0.6605842 0.8104229 -1.1923267 -0.15899397
000030 a6 eb 02 be 87 29 91 be e4 96 6c 3f 25 f7 85 bf
       -0.12785205 -0.28351995 0.9241774 -1.0466048
000040 ae a3 3f bf 45 a1 82 be 54 a1 83 bd ba 3d d7 3d
       -0.7485913 -0.25513664 -0.06427255 0.1050982
000050 24 64 a5 be 2e 8f 08 bf 5c f4 3b bf 88 36 67 bf
       -0.32302964 -0.53343475 -0.7341974 -0.90317583
000060 67 7c 09 bf 5e f8 12 be 12 00 d4 3d a0 b2 12 3e
       -0.5370545 -0.14352557 0.10351576 0.14325953
000070 54 50 6e 3f ef a2 34 bf 03 dd f2 ba 25 d3 0e bf
       0.9309132 -0.70561117 -0.0018529001 -0.5579093
000080 5c ed 16 3f 8d dc a2 bf 97 33 d8 3e 00 4a 92 be
       0.5895593 -1.2723557 0.4222686 -0.28572083
000090 31 5e 2f bf b4 88 13 be 0a b0 49 bf a1 06 85 3e
       -0.685031 -0.14407617 -0.7878424 0.2598162
0000a0 bb 1f ba be f6 74 8e bf ab 74 18 3f 84 27 8b be
       -0.36352333 -1.1129444 0.5955302 -0.27178586
0000b0 ee 2f f2 3e 5d 34 19 3e 3c 4e 90 bf 74 4a f3 3d
       0.47302192 0.14961381 -1.1273875 0.11879435
0000c0 a7 b4 7b bf b5 3d 10 3e f2 90 a1 bf 80 9c 97 3e
       -0.9832253 0.1408604 -1.2622359 0.29611588
0000d0 59 77 9b bf 8d f7 32 3f e7 40 cd 3e ab 8e e8 3e
       -1.2145797 0.6990898 0.4008858 0.45421347
0000e0 f4 0f a2 3e 6a 48 c6 3e ba de c8 bd ee b0 07 3e
       0.31652796 0.38727123 -0.09808107 0.13251087
0000f0 de 8a b5 bf 82 e8 c0 3e b3 40 b4 bf 2f f7 83 3e
       -1.4183004 0.3767739 -1.4082245 0.25774524

l3.bias f4 [8]
000000 9b ad b8 3d 40 fd 8e 3e 8d 8a 28 bf 7f b9 63 3d
       0.090174876 0.2792759 -0.6583641 0.055596825
000010 01 90 88 be b1 c3 8b 3d 69 2f 0e bf 82 52 cb 3d
       -0.26672366 0.068244345 -0.5554109 0.099278465
