frontend_files/DiscordBot/data.pth (torch, 5079 bytes, 6 tensors)

l1.weight f4 [8, 55]
0.059662525 0.003127182 -0.052735034 0.42483553 0.34291145 -0.06687897 -0.40563008 -0.06117785
-0.13316704 0.81294566 0.42629856 -0.31261835 0.2733473 -0.062353298 0.45505032 -0.2610296
0.8884259 0.3383944 -0.5735294 -0.323481 -0.57358783 -0.3405778 0.11398503 -0.57355434
-0.37647873 -0.28089756 -0.022765368 0.46434897 -0.12685111 -0.14277421 0.41096914 -0.18541272
0.56556004 0.46802142 0.40164956 -0.20949312 -0.076313905 -0.056758426 -0.2150939 0.5168083
0.50071406 0.07407491 0.56729937 0.61070246 -0.015298732 -0.03715153 -0.54971206 -0.25318834
-0.23291707 0.36972645 0.47524148 0.62645656 -0.124716155 -0.114795275 0.20861065 -0.12425805
-0.021347709 0.023086831 -0.011021797 -0.026117513 0.052568167 -0.044020608 0.13349305 0.027331695
0.046073005 0.07742666 -0.024690196 -0.04192038 -0.018202573 0.09786707 0.07814039 0.045526743
-0.088321656 -0.099323094 -0.13088979 0.050484717 0.003689468 -0.04122872 -0.13037674 0.103298485
-0.12783125 0.095199004 -0.123869 -0.11287272 0.033363365 -0.082640074 -0.12757637 0.07814789
-0.088475674 -0.12632911 0.045851037 -0.037618585 -0.10047561 0.063395746 0.005182907 0.05403997
0.06578176 -0.10136519 -0.07186874 0.017013147 -0.027315825 -0.007918388 0.0014891922 0.019624649
-0.09497874 0.12519167 -0.107614055 -0.03764064 0.069793604 -0.056544803 0.43810594 0.06642635
0.51685447 0.8285268 0.69340587 -0.36406684 0.22071023 0.41920906 0.0899188 -0.3931978
-0.11170896 0.028956959 0.45307213 0.4525713 0.38103682 0.12608089 -0.39317223 0.54026383
-0.3061469 0.1266757 -0.13136503 -0.2082806 0.4912223 -0.31452638 -0.28646246 0.49306944
0.5418794 -0.24549827 0.5294841 0.56779265 0.53238326 0.7991545 -0.19431676 -0.17640622
0.4820279 0.60744697 0.6205507 0.35930893 0.3874101 0.79927135 0.38456005 0.5108973
0.64523286 -0.2312971 0.7268892 0.41110957 0.39136577 0.17914282 0.15290168 -0.061242983
-0.08162442 0.41218293 0.50023824 0.48170054 0.12731826 0.3931031 -0.37165323 0.26381138
0.16509515 0.33963296 0.48175946 0.56892616 0.3769234 -0.09112585 0.08926645 0.30574986
0.60073006 0.019623987 0.21197654 0.07336344 0.5294011 0.18084423 0.030724188 0.6051679
-0.19055685 0.75544184 0.44371387 0.35085222 0.78716403 0.4225519 0.5314698 0.5191158
0.30619982 0.4017239 0.29510748 -0.10719742 0.56640923 0.19133975 0.36631307 0.22945929
0.505458 0.53292763 0.16314702 0.36839405 0.32489184 0.13796538 0.36437917 -0.14789835
0.21482731 0.4480927 0.44548652 -0.7024902 -0.19833249 0.7475815 0.23740269 0.14786623
0.078051366 0.50773835 0.36563733 -0.05808377 -0.08362544 0.34521168 -0.011611351 0.13742214
0.1110747 -0.27715576 -0.4249348 -0.22355857 0.35238072 -0.39611852 -0.108538866 -0.2461162
0.10503029 0.07982524 0.18856516 -0.10281667 -0.3958112 0.19146112 -0.39583147 0.435032
-0.34255594 0.023298705 0.6699042 -0.36177194 -0.2982297 0.40234458 -0.1618702 -0.42017832
-0.15761605 -0.16769883 0.31290925 0.8205488 -0.18309915 -0.11184522 0.11048608 0.6347723
00000000: b160 743d 68f1 4c3b b100 58bd 0b84 d93e
00000010: 1792 af3e d7f7 88bd bfae cfbe a095 7abd
00000020: f15c 08be 351d 503f ce43 da3e 830f a0be
00000030: 2df4 8b3e 2c66 7fbd 5bfc e83e aca5 85be
00000040: e16f 633f 0842 ad3e d3d2 12bf 4d9f a5be
00000050: a7d6 12bf 3760 aebe fc70 e93d 75d4 12bf
00000060: d2c1 c0be ced1 8fbe 707e babc 26bf ed3e
00000070: 42e5 01be 6733 12be 8c6a d23e d5dc 3dbe
00000080: 8bc8 103f 81a0 ef3e 03a5 cd3e 5d85 56be
00000090: 774a 9cbd 867b 68bd 9341 5cbe 8c4d 043f
000000a0: cc2e 003f 96b4 973d 883a 113f ff56 1c3f
000000b0: 88a7 7abc 342c 18bd eeb9 0cbf e7a1 81be
000000c0: d081 6ebe c94c bd3e da52 f33e 755f 203f
000000d0: 2f6b ffbd c919 ebbd 089e 553e 017b febd
000000e0: 64e1 aebc 9820 bd3c c494 34bc 65f4 d5bc
000000f0: b851 573d f44e 34bd 67b2 083e b8e6 df3c
00000100: 0cb7 3c3d de91 9e3d 1843 cabc b4b4 2bbd
00000110: 901d 95bc 886e c83d 1208 a03d 407a 3a3d
00000120: fce1 b4bd e869 cbbd f907 06be 10c9 4e3d
00000130: 00cb 713b 72df 28bd 7b81 05be 288e d33d
00000140: 32e6 02be b2f7 c23d 08af fdbd d029 e7bd
00000150: 06a8 083d 333f a9bd 61a3 02be 000c a03d
00000160: bc32 b5bd 6b5c 01be 4cce 3b3d f215 1abd
00000170: 28c6 cdbd a1d5 813d 60d5 a93b 0459 5d3d
00000180: 96b8 863d 8e98 cfbd eb2f 93bd 285f 8b3c
00000190: 70c5 dfbc 20bc 01bc 0031 c33a dfc3 a03c
000001a0: 3784 c2bd 3f32 003e c264 dcbd 122d 1abd
000001b0: f3ef 8e3d 869b 67bd 6c4f e03e 8a0a 883d
000001c0: 9350 043f 551a 543f 0c83 313f f866 babe
000001d0: dd01 623e 92a2 d63e 5927 b83d 3951 c9be
000001e0: abc7 e4bd 2537 ed3c 12f9 e73e 6db7 e73e
000001f0: 4217 c33e 591b 013e df4d c9be bb4e 0a3f
00000200: 49bf 9cbe 46b7 013e 8e84 06be 8247 55be
00000210: 7d81 fb3e 9a09 a1be 35ab 92be 9973 fc3e
00000220: 9cb8 0a3f e663 7bbe 458c 073f dc5a 113f
00000230: 454a 083f 6495 4c3f f9fa 46be d5a3 34be
00000240: 5ccc f63e a581 1b3f 69dc 1e3f 57f7 b73e
00000250: 9e5a c63e 0c9d 4c3f 0ee5 c43e 2aca 023f
00000260: fb2d 253f 26d9 6cbe 6915 3a3f f47c d23e
00000270: 1861 c83e 3771 373e 4292 1c3e ecd9 7abd
00000280: b42a a7bd a409 d33e 9d0f 003f 74a1 f63e
00000290: b85f 023e cf44 c93e 5549 bebe 4912 873e
000002a0: b40e 293e 5fe4 ad3e 2da9 f63e 25a5 113f
000002b0: 1bfc c03e 31a0 babd 54d1 b63d 3f8b 9c3e
000002c0: 72c9 193f 7cc2 a03c 6110 593e 923f 963d
000002d0: d586 073f 3b2f 393e 4bb1 fb3c 49ec 1a3f
000002e0: 5621 43be a364 413f 772e e33e e7a2 b33e
000002f0: 9583 493f b958 d83e 680e 083f c6e4 043f
00000300: 39c6 9c3e c1ae cd3e 5418 973e 528a dbbd
00000310: 3200 113f 91ee 433e 638d bb3e 60f7 6a3e
00000320: b265 013f f26d 083f 0310 273e 259e bc3e
00000330: 3958 a63e cc46 0d3e e88f ba3e aa72 17be
00000340: b1fb 5b3e 686c e53e cf16 e43e 66d6 33bf
00000350: ac17 4bbe 8061 3f3f b119 733e 3f6a 173e
00000360: 65d9 9f3d 24fb 013f d134 bb3e 3fe9 6dbd
00000370: d143 abbd 96bf b03e 893d 3ebc 64b8 0c3e
00000380: 227b e33d 5ce7 8dbe 0e91 d9be 8aec 64be
00000390: 3f6b b43e 0cd0 cabe a049 debd e305 7cbe
000003a0: 1f1a d73d 6a7b a33d 3a17 413e 8c91 d2bd
000003b0: c4a7 cabe 620e 443e 6caa cabe 84bc de3e
000003c0: 7e63 afbe eddc be3c d77e 2b3f 2c3a b9be
000003d0: 90b1 98be 1c00 ce3e 4dc1 25be 9d21 d7be
000003e0: 1a66 21be 3eb9 2bbe a435 a03e 7c0f 523f
000003f0: 587e 3bbe 1b0f e5bd 8746 e23d 7080 223f

l1.bias f4 [8]
0.5735441 -0.16084376 0.39316395 0.76051605 0.39581257 0.81478715 0.49065122 0.8148239
00000000: c9d3 123f 3ab4 24be c94c c93e 2eb1 423f
00000010: f2a7 ca3e e495 503f a336 fb3e 4d98 503f

l2.weight f4 [8, 8]
-1.0709847 0.12459266 0.34113187 1.1604024 -0.1412865 0.31611308 0.60856575 -0.25414062
-1.1414709 0.15929873 -0.122576825 0.3241038 -0.6516175 0.46567962 1.3213466 0.6112325
0.72244465 -0.082923114 -0.12692787 0.75481325 -0.7609041 0.96225923 -0.747248 0.5521331
-0.30807787 -0.18057762 -0.34790605 -0.07414712 -0.32347617 -0.109161615 0.21871388 -0.1487875
-0.8165775 0.05294318 -0.016337017 -0.8589825 0.4032493 1.0080882 0.7927581 1.1221161
0.84664726 0.14390102 0.4441099 0.27674863 -0.5873189 -0.23056357 0.0098187085 0.4986387
1.1314434 0.09326537 -0.6054291 0.90577495 -0.8009023 0.9874433 -0.85840154 0.74504924
-0.111353226 -0.1401918 1.0156142 0.07547303 1.4102075 -0.4690273 1.1168804 0.39016044
00000000: 0716 89bf 702a ff3d d6a8 ae3e 1188 943f
00000010: 69ad 10be 93d9 a13e f7ca 1b3f b81e 82be
00000020: b81b 92bf 351f 233e 8f09 fbbd eff0 a53e
00000030: 68d0 26bf 8f6d ee3e e321 a93f bc79 1c3f
00000040: 22f2 383f 98d3 a9bd 61f9 01be 713b 413f
00000050: 9cca 42bf 9f56 763f a54b 3fbf 9858 0d3f
00000060: 62bc 9dbe 57e9 38be be20 b2be 72da 97bd
00000070: ab9e a5be 2090 dfbd 88f6 5f3e c05b 18be
00000080: 390b 51bf f3da 583d 35d5 85bc 47e6 5bbf
00000090: b176 ce3e 0909 813f 32f2 4a3f 80a1 8f3f
000000a0: e0bd 583f ca5a 133e 5f62 e33e ffb1 8d3e
000000b0: 885a 16bf db18 6cbe a6de 203c 924d ff3e
000000c0: 23d3 903f ea01 bf3d 67fd 1abf dee0 673f
000000d0: ef07 4dbf 16c9 7c3f 34c0 5bbf 8cbb 3e3f
000000e0: 290d e4bd 708e 0fbe a5ff 813f 9b91 9a3d
000000f0: ae81 b43f 5924 f0be f0f5 8e3f 1cc3 c73e

l2.bias f4 [8]
0.41240123 0.5463586 0.3450744 -0.0029307245 0.43276617 -0.27030906 0.5587285 0.21487872
00000000: 4126 d33e 28de 0b3f 97ad b03e 6611 40bb
00000010: 8793 dd3e f365 8abe d508 0f3f 2b09 5c3e

l3.weight f4 [7, 8]
-1.463103 -0.51544654 0.6490044 0.29766324 0.032051895 0.87991357 0.8901455 -1.1862826
0.5528829 0.37303954 0.43350226 -0.2254658 0.11773202 -0.94314605 0.2607985 -0.5503176
-0.33123508 -0.6464453 -0.44931462 -0.08103388 -0.40270674 -0.2771559 -0.1946627 -0.78692913
0.4994953 0.17563355 -0.94453573 0.18707988 -0.4989835 0.6113414 -0.8233474 0.04868786
0.5535412 -0.9162871 -0.9708777 0.24137521 -0.9385044 -0.89347154 -0.449515 0.64870167
-1.0794557 -0.55747837 0.048701815 -0.041265544 -0.25424576 0.71438044 -0.18114837 0.56089604
-0.9631214 0.20947587 -0.9399373 -0.26599893 0.8440491 -0.93840975 -0.5725346 0.5622654
00000000: f646 bbbf 4ef4 03bf 2725 263f 5167 983e
00000010: d948 033d 0442 613f 93e0 633f 1cd8 97bf
00000020: bc89 0d3f 0aff be3e 02f4 dd3e 82e0 66be
00000030: 7c1d f13d 0572 71bf 6287 853e 9de1 0cbf
00000040: a597 a9be 707d 25bf 910c e6be 17f5 a5bd
00000050: 942f cebe 61e7 8dbe a955 47be 3074 49bf
00000060: d9bd ff3e 48d9 333e 18cd 71bf de91 3f3e
00000070: c47a ffbe df80 1c3f e5c6 52bf ec6c 473d
00000080: e0b4 0d3f cb91 6abf 718b 78bf 102b 773e
00000090: d341 70bf 8dba 64bf d526 e6be 5011 263f
000000a0: 9b2b 8abf e7b6 0ebf 8e7b 473d 0f06 29bd
000000b0: 802c 82be a3e1 363f f57e 39be e296 0f3f
000000c0: 208f 76bf d880 563e bb9f 70bf 0331 88be
000000d0: 9a13 583f 9f3b 70bf a191 12bf a0f0 0f3f

l3.bias f4 [7]
0.2977012 0.27857587 -0.024306912 -0.47778666 0.23892348 0.0071783685 0.4085658
00000000: 4b6c 983e 7fa1 8e3e 4a1f c7bc 74a0 f4be
00000010: 5ba8 743e 8538 eb3b 892f d13e
