frontend_files/DiscordBot/data.pth (torch, 5079 bytes, 6 tensors)

l1.weight f4 [8, 55]
000000 f4 2d aa 3e 35 11 0e be 22 08 07 3f 04 b1 35 3f
       0.33238184 -0.13873751 0.52746785 0.7097323
000010 a4 94 0c 3f 3a b0 8a be b0 e5 f7 3e f2 55 02 3f
       0.5491431 -0.27087575 0.48417425 0.5091239
000020 99 38 03 bc 87 90 04 3f 13 68 82 3d 88 5e 66 3e
       -0.008009099 0.5178303 0.06367507 0.22496998
000030 24 42 09 3f c2 c1 a2 3e 22 84 ce 3e f3 1c d3 3d
       0.5361655 0.3178845 0.40335184 0.10308256
000040 62 43 f1 3e d1 1b 04 3f 3b 72 6f 3e 0f 6b 54 be
       0.47121722 0.51604944 0.23383419 -0.20743965
000050 36 b8 94 3e f4 4f 9c 3d 1c 1f f0 bc e6 e0 5d 3e
       0.29046792 0.07632437 -0.02931171 0.21667823
000060 46 53 2e be ae 79 e8 3e 8e 3c 02 3f c7 9a 9e 3e
       -0.17023954 0.45405334 0.5087365 0.3097746
000070 40 02 bd 3e cc b4 09 3f 75 c3 91 3e 62 b4 bb bc
       0.3691578 0.537915 0.28469434 -0.022913162
000080 e6 59 99 3e 49 2b 63 3e d3 ca 97 3e e5 5e da 3b
       0.299514 0.2218448 0.2964693 0.0066641443
000090 bb eb 97 3d 81 8a 41 be 26 93 0b 3f 25 ac 1c 3f
       0.07418009 -0.18900491 0.54521406 0.6120017
0000a0 f7 f9 d6 3e 5e 35 38 be 36 f5 19 3f a9 3e bd 3e
       0.41987583 -0.17989108 0.6013979 0.36961868
0000b0 33 cf 5a 3d bc 1c b3 3e 10 5e 1d bf 96 3e fb bd
       0.053420257 0.3498286 -0.61471653 -0.12267797
0000c0 83 0b e7 3e a6 1b b9 3e e3 a1 88 3e 1e ba c4 3e
       0.4512597 0.36153907 0.2668601 0.38423246
0000d0 bd 3b 09 3f d1 34 f5 3e 33 38 99 3d 8d df 57 be
       0.5360678 0.47891858 0.07481422 -0.21081372
0000e0 2b 1a f6 3e 41 10 16 be 9f 4f 80 be 92 a1 78 be
       0.4806684 -0.14654638 -0.25060746 -0.24280384
0000f0 06 bb 82 3e 88 19 ea 3b 4d d9 b0 bd 6a 2c c8 3e
       0.25533313 0.007144157 -0.08635197 0.39096385
000100 ef 94 ef be a2 ef 00 be 47 90 4e 3e 31 13 c4 bd
       -0.46793315 -0.12591413 0.20172225 -0.09573973
000110 d1 49 16 3e a7 83 e1 3b 55 cd b1 3e d6 f7 01 bf
       0.14676596 0.0068821493 0.34726968 -0.5076879
000120 77 91 2a be 78 2a b2 3e fa f7 fe 3e f2 4d e7 3e
       -0.16657053 0.34798026 0.49798566 0.45176655
000130 12 f0 aa 3e 67 36 46 bd bb d8 b6 3e f6 8b 07 3e
       0.33386284 -0.048391726 0.35712227 0.13236985
000140 a9 11 1b 3e 22 fe c8 bd 86 ee be be 8c e1 8e bc
       0.15143456 -0.09814097 -0.37291354 -0.017441534
000150 49 63 20 be 35 a9 1a 3e 15 f7 dc bd 8d b2 fb bd
       -0.15662874 0.1510361 -0.10789315 -0.12289915
000160 c5 8d 15 3d e5 ba 30 bd 31 5e 6e bd 74 a0 81 be
       0.036512155 -0.043146987 -0.058195297 -0.2531773
000170 66 3d 4b be bd bf 1c be 70 a9 b3 bd 40 4a e4 bd
       -0.1984764 -0.15307517 -0.08772552 -0.111469746
000180 1b 39 2a be c3 f1 40 be 27 8d a5 be 4f 0e 04 be
       -0.16623347 -0.18842225 -0.32334253 -0.12896083
000190 1a cc cb 3c 13 f4 44 3f eb 87 cc 3e 7c 12 97 3e
       0.024877597 0.7693493 0.39947447 0.2950629
0001a0 6a 70 23 be 52 b8 3a be 7c 0a d4 bd 68 ab 36 be
       -0.15960851 -0.18234375 -0.10353562 -0.17838824
0001b0 a2 48 bf bd 58 af ac 3e 57 02 4b 3e c1 5b 5c be
       -0.093400255 0.33727527 0.19825111 -0.21519376
0001c0 a6 46 13 bd ba eb f4 bd f8 e0 10 bd dd c7 82 3e
       -0.035956047 -0.11959024 -0.035370797 0.2554311
0001d0 2e b9 de 3e ac 31 ca bc 78 2c e0 bd bb b2 17 3f
       0.43500656 -0.024681889 -0.10945982 0.59257096
0001e0 79 95 19 3e 5b ad ba 3e b1 d0 90 bd fe 7c 47 3c
       0.14998426 0.36460385 -0.07071055 0.012175797
0001f0 28 83 74 be 78 43 08 3f b0 94 29 3f fe a0 28 be
       -0.23878157 0.5322795 0.66242504 -0.16467664
000200 93 0f 10 3f 5c 76 da bd a5 41 ae 3e 2a a8 4c 3e
       0.56273764 -0.106671065 0.34034458 0.19986024
000210 c6 7a 1e be 92 2c 02 3f 46 9e 66 3e 26 05 ac 3c
       -0.15476522 0.5084926 0.22521314 0.020998549
000220 f6 4b d2 bd 36 f1 d6 3e c8 2f 1e 3e ac fa 1f 3c
       -0.10268395 0.41980904 0.15447915 0.009764355
000230 f1 d2 27 be 0b 17 0a be 6b 26 c8 3e e7 c2 a3 3e
       -0.16389062 -0.13485353 0.3909181 0.31984636
000240 75 a1 5c be c4 d6 76 be c6 35 9c be a6 3d 8f be
       -0.21545966 -0.24105364 -0.30509776 -0.27976722
000250 94 b5 86 3d 16 0d 4a be cc 1e 57 be bf 3f 0d be
       0.06577602 -0.19731554 -0.21007842 -0.13793848
000260 3c 05 c6 be 26 70 8f 3e 72 39 a9 bd bd fd a3 3d
       -0.3867587 0.2801525 -0.0826291 0.08007381
000270 02 1c 10 bf 7f 92 56 be 6e 2d 87 3e e1 44 a3 3e
       -0.56292737 -0.20954321 0.26401848 0.31888488
000280 78 ad 58 3e 8e 18 d4 3d 3d 66 9e bd 49 04 02 3d
       0.21159923 0.10356246 -0.07734344 0.031742368
000290 ba 6a 2f 3e a4 19 4f bc 5d aa d7 bd 3c c7 68 3c
       0.17130557 -0.012640391 -0.10530541 0.014207657
0002a0 a1 ef 5d be 6c d4 97 ba a1 05 10 be e4 27 1c be
       -0.21673442 -0.0011583692 -0.14064647 -0.15249592
0002b0 75 b3 33 bc 1f af 2c bc c7 d4 15 3f a6 f2 9c 3e
       -0.010968079 -0.010539799 0.585278 0.30653876
0002c0 87 8c 5b be cb 2a 00 be 38 55 a6 3d d5 8a b0 bd
       -0.21440326 -0.12516324 0.08121723 -0.0862023
0002d0 d9 8a 47 be 1a fd c8 3e 25 3d 40 be 7d 84 bd be
       -0.1948656 0.392556 -0.18773325 -0.37015143
0002e0 8e 7d 85 be 85 a4 cf be 31 bc 37 be 9b 16 a5 3c
       -0.26072353 -0.40555206 -0.17942883 0.02015238
0002f0 9c 89 d1 be 71 1d 68 be 20 61 8f bd e0 f2 b6 bc
       -0.409253 -0.22667481 -0.07000947 -0.022332609
000300 76 7d d2 3e 62 d1 a0 bd 58 e7 d6 bc 1b 40 78 bd
       0.41111344 -0.078524366 -0.02623336 -0.06060801
000310 b8 b2 2d be ff 85 4b 3e ec 58 c1 3e fe cc 3f be
       -0.16962707 0.19875334 0.37763155 -0.18730542
000320 83 6d d0 bd 3b a5 e5 bd d0 e7 10 be c8 d2 c1 bd
       -0.10177138 -0.11213156 -0.1415093 -0.094640315
000330 66 6d 3e be f4 ce 03 3c 5f 01 87 3d 6b 8f 53 be
       -0.1859642 0.008044947 0.065920584 -0.20660178
000340 b5 70 f8 3e bf 19 e1 bc e4 9f 0c bd 1a 87 d1 be
       0.4852349 -0.027478097 -0.03433217 -0.40923387
000350 34 fc 30 bd b6 30 50 be 03 46 7c 3e 4b 45 bf 3e
       -0.04320927 -0.20331082 0.24636082 0.37357554
000360 69 78 85 3e 99 4c ea bd 28 6b a0 bc 65 11 2e 3e
       0.26068428 -0.11440391 -0.019582346 0.16998823
000370 f6 8a f6 bd b5 3e 85 be fb 2e 47 be 9d b9 de 3e
       -0.120382234 -0.26024404 -0.19451515 0.43500987
000380 6c b3 99 3d 17 fd 9d 3e ed d7 d1 3e 94 29 09 be
       0.07504925 0.30857155 0.4098505 -0.13394767
000390 a8 61 ee bc 6f 92 f8 be 14 76 f8 bc 65 19 90 3e
       -0.0290993 -0.4854922 -0.030329742 0.28144374
0003a0 17 5c e4 3e 39 08 81 be a0 1c ad 3e 10 63 b8 3e
       0.4460151 -0.25201586 0.33810902 0.3601308
0003b0 dd 20 00 bf 30 7f 0d 3f d3 0b 27 3f 1f e9 ae be
       -0.50050145 0.552722 0.6525242 -0.34162232
0003c0 c6 1d 25 3f a9 a8 08 3f 41 71 66 be 93 1f ff 3e
       0.64498556 0.53382355 -0.2250414 0.49828777
0003d0 5e 1a d0 3e 72 f8 81 3e fd 7a ce be 4c 73 27 be
       0.40645117 0.2538486 -0.40328208 -0.16352576
0003e0 52 11 a6 be 1a 41 f9 be 2e 8d 1d 3f ac 14 30 be
       -0.3243509 -0.4868248 0.6154355 -0.17195386
0003f0 55 25 5c be a0 e3 99 3d 56 c6 f8 3e 47 68 90 be
       -0.21498616 0.07514119 0.48588818 -0.28204557

l1.bias f4 [8]
000000 fc 5c 1d 3f ca 4f 0c 3f b7 78 43 3f 2e 86 d1 3e
       0.6147001 0.5480925 0.7635607 0.40922683
000010 ac ad 2f 3f a2 79 ee 3e bc 99 ff 3e 31 30 b3 3e
       0.6862438 0.46577173 0.49921978 0.34997705

l2.weight f4 [8, 8]
000000 25 8e 19 be ed 19 7b 3f b6 8f 92 3e 9c 06 3b bf
       -0.1499563 0.98086435 0.28625268 -0.7305696
000010 42 ad 98 3f ad 36 13 3f a6 55 6f bf 5a b2 17 3f
       1.1927874 0.57505304 -0.93490064 0.5925652
000020 c8 0c 8c 3e a3 7a 6e 3e 7f 7f f7 3e a0 9b 30 3f
       0.273535 0.2328897 0.4833946 0.68987465
000030 19 d7 74 bf a8 0b 4c 3f b9 de 10 3f 63 b6 71 3e
       -0.9564071 0.79705286 0.5658985 0.23604731
000040 2c 67 76 3f 47 c1 83 bf 6d d9 52 bf de be 12 bf
       0.9625118 -1.0293359 -0.82363015 -0.5732249
000050 d3 e7 a5 3e 70 50 0f 3f 1f 47 2b be 21 da 58 3f
       0.3240343 0.5598211 -0.1672635 0.8470784
000060 06 4b b5 3e d1 30 f4 3e 1f f1 b0 be eb e5 89 be
       0.354088 0.47693494 -0.3455896 -0.26933226
000070 b5 2e 8b be 67 ad bf 3e b2 0e 34 bf 5b a4 9f 3f
       -0.27184072 0.37436983 -0.70334923 1.2472032
000080 21 1d 3f 3f f0 9f 24 3e f7 51 96 3f 19 27 c0 3e
       0.7465382 0.16076636 1.1743764 0.3752983
000090 7d d5 9f 3f 77 26 e4 be b2 e5 c4 3c 76 aa b4 be
       1.2487026 -0.44560596 0.024035309 -0.352863
0000a0 01 26 eb be 51 7f 20 3f ac 86 39 bf 2c 1f ca be
       -0.45927432 0.6269427 -0.7247112 -0.39476907
0000b0 3e 91 ec be ea eb 6d 3f cd ca 12 3f b2 48 c2 3e
       -0.4620456 0.929381 0.573407 0.37946087
0000c0 94 b0 14 3f fd 01 3d bf 17 ca d7 3e 71 e8 27 3f
       0.58081937 -0.7383116 0.4214637 0.6558905
0000d0 09 93 f2 be eb 6b 6c 3f 16 dc 86 3f 63 bd 0e bf
       -0.47377804 0.9235217 1.0535915 -0.5575773
0000e0 26 7c 7d be 8c d2 79 be 90 87 9d be 00 df 05 3d
       -0.2475439 -0.24396724 -0.30767488 0.032683372
0000f0 12 40 4e be 0d 5e 14 be 80 06 b1 bd 19 74 aa 3e
       -0.20141628 -0.14489003 -0.08643818 0.332917

l2.bias f4 [8]
000000 65 37 13 3f 88 73 b8 3e a1 c4 67 3e e0 3f 12 be
       0.575064 0.36025643 0.22633602 -0.14282179
000010 ca 47 34 3f 5a 3c c8 3e 62 88 94 3e 5e a3 0a be
       0.7042204 0.39108545 0.29010302 -0.13538882

l3.weight f4 [7, 8]
000000 c9 d6 71 bf 87 69 e0 3e 18 85 81 bf 09 50 16 bf
       -0.9446836 0.4383051 -1.0118742 -0.58715874
000010 fb ee 98 3e 60 ce a4 bf 88 46 73 3f b8 b9 87 bd
       0.29869828 -1.2875481 0.950295 -0.0662722
000020 6b 05 e2 3e b6 2e 53 bf c6 3a 67 bf 8b 62 9e bf
       0.4414476 -0.8249315 -0.90324056 -1.2373823
000030 ba 12 82 3f 18 ac 70 bf 81 43 1f bf 08 30 28 bd
       1.0161965 -0.94012594 -0.6221238 -0.04106143
000040 fc ed 26 bf 65 46 17 bf ea 58 19 bf 99 60 d5 be
       -0.65206885 -0.5909179 -0.599013 -0.4167526
000050 44 70 cf be f1 41 43 bf 9c dc 41 bf 85 7b 12 be
       -0.4051534 -0.76272494 -0.7572725 -0.14304931
000060 35 bf 19 bf 19 89 d9 3e b9 11 10 3f 6a 0e 96 3e
       -0.60057384 0.4248741 0.5627704 0.29307872
000070 4e 51 24 bf 50 bd 4a bf 46 7b 0c bc a8 fd 25 bd
       -0.6418656 -0.7919512 -0.008574313 -0.04052511
000080 e0 8b 33 bf ec 21 14 3e 64 2a 78 3e 9a 6b 9c bf
       -0.7013531 0.14466065 0.2423492 -1.2220337
000090 4d 09 8b bf 3b 1b 0c 3f 56 71 16 3f 41 85 a8 3e
       -1.0862213 0.5472905 0.58766687 0.32914165
0000a0 d3 5c fb 3c 02 40 93 bf 91 84 0a 3f 30 b5 8d 3e
       0.03068391 -1.1503909 0.5410853 0.27677298
0000b0 cb 17 74 bd 1c 75 7a bf ef fb 7f be 97 fd a5 3e
       -0.059593003 -0.97834945 -0.24998449 0.32420036
0000c0 34 65 cf 3e 7d 40 b7 3e 0c 8b 28 bf 95 7b 10 3f
       0.405069 0.35791388 -0.6583717 0.5643857
0000d0 5f cb 84 bf 89 f8 10 3f c7 5f 5f bf a8 a7 5c bd
       -1.0374564 0.56629235 -0.8725552 -0.053870827

l3.bias f4 [7]
000000 29 e8 5d 3e 99 16 25 3f de e3 e9 be d4 6a df be
       0.21670593 0.64487606 -0.4568166 -0.4363619
000010 ae 5c a6 be 74 74 94 be 5d ca e8 3e
       -0.32492584 -0.28995097 0.4546689
