frontend_files/ci_project/data.pth (torch, 5015 bytes, 6 tensors)

l1.weight f4 [8, 54]
0	0x3f14eff7	0.5817866
1	0x3f00be7b	0.5029065
2	0xbddde777	-0.10835164
3	0xbe6aedaf	-0.22942232
4	0xbd226a85	-0.039652366
5	0x3e192475	0.14955314
6	0x3e12804a	0.14306751
7	0xbe231caf	-0.1592891
8	0x3f179faf	0.5922803
9	0xbd75a80d	-0.05997472
10	0xbe66bd77	-0.22533213
11	0xbe768e4d	-0.24077721
12	0x3c35b8db	0.011091436
13	0x3dfacc03	0.122459434
14	0x3ea0e6ef	0.31426188
15	0x3c115a98	0.008871697
16	0xbe9764c7	-0.29569075
17	0x3dad7310	0.08469212
18	0xbd60b548	-0.054860383
19	0xbf0563a7	-0.5210518
20	0x3f1148bc	0.5675161
21	0xbf056414	-0.5210583
22	0xbf0563dc	-0.521055
23	0xbf2047c8	-0.6260953
24	0x3d074deb	0.033033293
25	0xbe3bb4f7	-0.18330751
26	0xbda4f243	-0.0805402
27	0x3f601e9b	0.875467
28	0x3e1dec9e	0.15422294
29	0x3edc83a8	0.43069196
30	0x3e62d0fd	0.22150035
31	0xbd51e4fb	-0.051243763
32	0x3ebaa819	0.36456373
33	0xbda668f7	-0.08125489
34	0x3eec1931	0.4611297
35	0xbe011817	-0.12606846
36	0x3d8269fe	0.06367873
37	0x3f05685c	0.52112365
38	0x3d4a1ec7	0.049345758
39	0x3e44620d	0.19178028
40	0x3d55c1da	0.052186824
41	0xbdfc57d3	-0.12321439
42	0xbdfd35d4	-0.123637825
43	0x3f04531c	0.51689315
44	0xbe0cc26c	-0.13746041
45	0x3f18a5f6	0.59628236
46	0x3f4ad3c5	0.79229385
47	0x3f133f07	0.5751805
48	0xbdddf9d2	-0.10838665
49	0xbe60f79c	-0.21969455
50	0xbe5a5056	-0.21319708
51	0xbe344ddf	-0.1760783
52	0xbd4080e7	-0.04699793
53	0x3e142de2	0.14470628
54	0x3ef2d4b7	0.47427914
55	0x3eed5592	0.46354347
56	0x3ec03cf7	0.37546512
57	0xbe8d22dd	-0.2756566
58	0xbf02e1c8	-0.51125765
59	0xbefa28fe	-0.488594
60	0x3db26c42	0.08712055
61	0x3e96823e	0.29396242
62	0xbdf06764	-0.1173847
63	0x3e8dd24f	0.27699515
64	0xbe03bef0	-0.12865806
65	0x3eac55a2	0.33659083
66	0x3e018bef	0.12651037
67	0x3eebf29e	0.4608354
68	0x3e977d7f	0.29587933
69	0x3e92ecc8	0.28696275
70	0xbeb56cfb	-0.35434708
71	0xbefa0c4a	-0.488375
72	0xbea16b22	-0.31527048
73	0xbefa2136	-0.48853463
74	0x3f00c72a	0.503039
75	0xbefa13ee	-0.4884333
76	0xbefa0d1b	-0.48838124
77	0xbe5abe5b	-0.21361677
78	0x3e69e888	0.2284261
79	0xbe21177e	-0.15731618
80	0xbe42daa2	-0.19028714
81	0x3f67712c	0.9040706
82	0xbde67379	-0.112524934
83	0x3e819960	0.25312328
84	0xbead82a7	-0.33888742
85	0x3e93b01a	0.28845292
86	0x3ed4e3da	0.41580087
87	0x3e51d505	0.20491417
88	0x3e84ad17	0.25913307
89	0x3e7f7399	0.24946441
90	0xbd2a17c4	-0.04152657
91	0xbdeb567a	-0.114911035
92	0x3e82377a	0.2543295
93	0x3e7432b7	0.23847471
94	0xbec58a93	-0.38582286
95	0xbf05ff0d	-0.523423
96	0x3e766831	0.24063183
97	0x3ea536ad	0.32268277
98	0x3f0230d5	0.5085576
99	0x3ede82a3	0.43459043
100	0x3f8ddc8f	1.1082934
101	0x3ebb28c7	0.36554548
102	0xbd626055	-0.05526765
103	0xbea80961	-0.32819656
104	0x3e914fc9	0.28381184
105	0xbeb113db	-0.3458546
106	0x3e353eff	0.17699812
107	0x3e71d788	0.23617375
108	0x3eb0729b	0.34462437
109	0x3e201ba3	0.15635543
110	0xbd5a3582	-0.053273685
111	0x3f0a766f	0.54086965
112	0x3e850182	0.25977713
113	0x3f6406ec	0.8907306
114	0x3d8fbd54	0.07018533
115	0xbda2a051	-0.07940734
116	0xbea0f937	-0.31440136
117	0xbe8101c5	-0.25196663
118	0x3ed16500	0.4089737
119	0x3dcbce4b	0.09951457
120	0xbeba26c8	-0.36357713
121	0xbd18e85d	-0.037330974
122	0xbe61bb25	-0.22044046
123	0x3e8d9a8e	0.27656978
124	0x3f17e8ee	0.593398
125	0x3f51c562	0.8194181
126	0xbe85fab6	-0.2616784
127	0x3f17d57f	0.59310144
128	0x3eb6da13	0.35713252
129	0x3f3bb4b4	0.73322606
130	0x3f1e6fc2	0.6188928
131	0x3f236f96	0.6384214
132	0x3e0808af	0.13284563
133	0x3eb053ca	0.34438926
134	0xbe8ac68f	-0.27104613
135	0xbf638627	-0.88876575
136	0xbeaa8ff6	-0.33312958
137	0xbd9d0224	-0.07666424
138	0x3f21db7f	0.6322555
139	0x3c999f6d	0.018752778
140	0x3ec6cab9	0.3882654
141	0x3df5ca9a	0.12001534
142	0xbe80d287	-0.2516062
143	0x3e4b477b	0.19851486
144	0xbe96c420	-0.29446507
145	0xbe0c5408	-0.1370393
146	0xbdbfaf08	-0.093595564
147	0x3d70afca	0.058761396
148	0x3f18cecc	0.59690547
149	0xbedf4d4d	-0.43613663
150	0xbcf022cc	-0.029313467
151	0xbe12be2b	-0.14330356
152	0x3df20532	0.11817397
153	0xbe5f2c16	-0.21794161
154	0x3f53ac6b	0.82684964
155	0x3ea324c1	0.31863979
156	0x3c17088e	0.009218348
157	0xbe945767	-0.28972933
158	0x3e9664a2	0.29373652
159	0xbe45df35	-0.19323428
160	0xbe0b3474	-0.13594228
161	0x3e2e6074	0.17028981
162	0x3eed0302	0.46291357
163	0x3e48d74f	0.19613384
164	0xbea10306	-0.3144762
165	0x3f00fb60	0.5038357
166	0x3d109788	0.03530076
167	0x3f527fa2	0.82226
168	0xbe93cd02	-0.28867346
169	0xbe9be88b	-0.30450854
170	0xbf080359	-0.5313011
171	0xbe97c8ca	-0.29645377
172	0x3ef71e78	0.48265433
173	0x3e99c521	0.3003321
174	0xbeb7331f	-0.3578119
175	0x3df2bccd	0.11852417
176	0xbda93d09	-0.08263595
177	0x3eb21112	0.3477865
178	0x3eb57515	0.3544089
179	0x3f306534	0.68904424
180	0xbdff2324	-0.124578744
181	0x3f18e5ae	0.59725463
182	0x3ec1ac59	0.37826803
183	0x3f05df84	0.5229418
184	0x3f0e6775	0.5562661
185	0x3f2572cc	0.6462829
186	0x3e4a4936	0.1975449
187	0x3ec34609	0.3813937
188	0xbe460252	-0.19336823
189	0xbf4cf5f8	-0.8006282
190	0xbeb06f85	-0.34460083
191	0xbd211a06	-0.03933146
192	0x3f1c3130	0.61012554
193	0x3e9066d8	0.28203464
194	0x3ee27bb7	0.44235012
195	0xbe0bf205	-0.13666542
196	0xbe4fd2fd	-0.2029533
197	0x3e92bf43	0.28661546
198	0xbde38317	-0.11108988
199	0xbebd90d5	-0.3702456
200	0xbe8c1dbe	-0.2736644
201	0xbe9b34f0	-0.30313826
202	0x3f13561d	0.57553273
203	0xbe814838	-0.2525041
204	0x3e923546	0.2855627
205	0xbe8105ff	-0.25199887
206	0x3db0a417	0.08625048
207	0xbe86b759	-0.26311758
208	0x3f67c9ad	0.9054211
209	0x3ee1e214	0.44117796
210	0x3e381519	0.17976798
211	0xbea6fdc1	-0.32615474
212	0x3ec98038	0.39355636
213	0xbe8575c3	-0.26066408
214	0xbe00f043	-0.12591653
215	0x3e0aebec	0.1356656
216	0xbe7d5753	-0.24740343
217	0x3d06953a	0.032857157
218	0x3ef50457	0.47854874
219	0x3ea0a2a5	0.31374088
220	0x3f059b45	0.5219005
221	0xbf16b57a	-0.5887066
222	0x3ef6f726	0.48235434
223	0x3e42c840	0.19021702
224	0x3ee1c4a4	0.44095337
225	0x3e72467e	0.23659703
226	0x3f0d322a	0.5515467
227	0xbea31586	-0.3185236
228	0x3ee1dfd2	0.44116074
229	0xbdffe315	-0.12494484
230	0x3e83f2c2	0.25771147
231	0xbe3d3448	-0.18476975
232	0x3f0f2774	0.55919576
233	0xbf16b35e	-0.5886744
234	0x3e67feb8	0.22655761
235	0x3f56c406	0.8389286
236	0xbdabd07f	-0.08389377
237	0x3f3de289	0.7417379
238	0x3f42eb43	0.7614023
239	0x3e61cbd0	0.22050405
240	0x3e7095b9	0.23494615
241	0x3eba7deb	0.36424193
242	0x3e68e957	0.22745262
243	0x3f0d1b13	0.55119437
244	0x3ea2ffb6	0.31835717
245	0x3ded712e	0.11593853
246	0xbed78124	-0.42090714
247	0xbdaf60a7	-0.08563357
248	0xbe23d1b7	-0.15997969
249	0x3ef46921	0.47736457
250	0x3eb450ce	0.352179
251	0xbec5599b	-0.38544926
252	0x3dd70f59	0.10500974
253	0x3f246022	0.6420919
254	0x3e84a0b4	0.25903857
255	0x3ecdad60	0.40171337

l1.bias f4 [8]
0	0x3f05639e	0.5210513
1	0x3efa118a	0.48841506
2	0x3f6b4f0c	0.9191749
3	0x3f4cfede	0.80076396
4	0x3f16b727	0.5887322
5	0x3ed4ce01	0.41563419
6	0x3f3a8304	0.72856164
7	0x3f36d83e	0.7142371

l2.weight f4 [8, 8]
0	0xbdd488e0	-0.10377669
1	0xbf6c4008	-0.92285204
2	0x3af02560	0.0018321685
3	0x3e9e9016	0.30969304
4	0xbf3bea93	-0.73404807
5	0x3f6cb214	0.92459226
6	0x3fbb4d7c	1.4633021
7	0x3d297da9	0.041379604
8	0xbe6b0864	-0.2295242
9	0xbe2e69c2	-0.17032531
10	0x3d000261	0.03125227
11	0xbe58d7a6	-0.21176013
12	0xbdb2d037	-0.0873112
13	0xbea40a18	-0.3203895
14	0xbe30ab5e	-0.17252871
15	0xbe70f8b4	-0.23532373
16	0xbf1813a2	-0.5940496
17	0xbf64cfcd	-0.8937958
18	0x3f95032c	1.1641593
19	0x3fa75f99	1.3076049
20	0x3e591362	0.211988
21	0xbf3510c0	-0.70728683
22	0x3ef68cff	0.48154446
23	0x3f608407	0.8770146
24	0x3f9c160a	1.2194226
25	0x3f5cd88d	0.8626793
26	0x3f11f37f	0.5701217
27	0x3f7765fb	0.96639985
28	0xbf7b82c9	-0.9824644
29	0x3ed4e15b	0.41578183
30	0x3f81ea4e	1.0149629
31	0xbf1f6f05	-0.6227878
32	0xbe4b2adf	-0.19840573
33	0x3f1388a7	0.5763039
34	0x3f8ee2c2	1.1162951
35	0x3f9adb00	1.2098083
36	0xbdc14798	-0.094374835
37	0x3d4a03a2	0.04931987
38	0xbec5a9a2	-0.38605982
39	0x3f78ee21	0.97238356
40	0x3f846a66	1.034497
41	0x3f412bc5	0.7545741
42	0xbea87bf2	-0.32907063
43	0xbf7b997a	-0.9828106
44	0x3f374b27	0.7159905
45	0x3f0db6db	0.5535714
46	0x3f22f27c	0.6365125
47	0x3f43afe6	0.76440275
48	0x3f6f94db	0.9358651
49	0x3f6a22bc	0.9145925
50	0xbee3ba66	-0.44478148
51	0xbe92adf1	-0.28648332
52	0x3f5f685e	0.87268627
53	0x3f8a0d45	1.07853
54	0x3f0c3ab4	0.54777074
55	0xbf016fd8	-0.50561285
56	0xbf8cca76	-1.0999286
57	0xbea00c6a	-0.3125947
58	0xbd94f857	-0.072739296
59	0xbde2b46d	-0.1106957
60	0x3f8d5383	1.1041111
61	0x3f8ca3a7	1.0987443
62	0x3ec4080b	0.38287386
63	0x3f694bbd	0.9113119

l2.bias f4 [8]
0	0x3e94634a	0.28982002
1	0xbe0777cf	-0.13229297
2	0x3efc04ca	0.49222404
3	0x3e475c7b	0.19468872
4	0x3e755025	0.23956354
5	0x3de53131	0.11191023
6	0x3db783f5	0.08960716
7	0xbd386f8f	-0.045028266

l3.weight f4 [7, 8]
0	0x3f23ba08	0.63955736
1	0xbe7faf9d	-0.24969335
2	0xbec7968d	-0.3898205
3	0x3e5ad0cc	0.21368712
4	0xbd3dfe69	-0.046385203
5	0xbf3c6be6	-0.7360214
6	0xbf118fa4	-0.56859803
7	0x3e9ba3f4	0.30398524
8	0xbf16b6a5	-0.58872443
9	0xbe8ea3d4	-0.27859366
10	0xbf7e493f	-0.99330515
11	0x3eafbb30	0.343225
12	0xbf9a9a66	-1.2078369
13	0x3f11458e	0.5674676
14	0x3f149f9a	0.5805603
15	0xbf9b6f66	-1.2143371
16	0x3f634f50	0.88792896
17	0x3d73cb0e	0.05951982
18	0x3edfd703	0.43718728
19	0x3ed0ffbe	0.40820116
20	0x3e1ea941	0.15494253
21	0xbfd4a74a	-1.6613553
22	0xbfcd7807	-1.6052254
23	0xbf9a2ac5	-1.2044302
24	0xbf48b9eb	-0.7840869
25	0x3e3ef453	0.1864789
26	0x3f2e470f	0.68077177
27	0xbf464671	-0.77451235
28	0x3f0ab1cb	0.5417754
29	0xbf48386d	-0.782111
30	0xbf95b023	-1.1694378
31	0x3e99d993	0.30048808
32	0x3f3877a3	0.7205755
33	0xbcb63463	-0.022241777
34	0xbf39bcf5	-0.7255395
35	0xbf17ef7f	-0.5934982
36	0xbfb9e02e	-1.4521539
37	0x3da70032	0.08154334
38	0x3d7d22f3	0.06180091
39	0x3ebf41cf	0.37354895
40	0xbf709378	-0.9397502
41	0x3e9d132b	0.30678686
42	0xbef0bd46	-0.47019404
43	0xbf97c763	-1.1857723
44	0x3e593430	0.21211314
45	0x3f2b6e94	0.66965604
46	0xbe9b79a1	-0.30366233
47	0x3e5e6f36	0.21722111
48	0xbf93548e	-1.1510179
49	0xbd60bbb6	-0.054866515
50	0xbe9cebdb	-0.30648693
51	0x3f2ac1e6	0.66702116
52	0x3ec2deb7	0.38060543
53	0xbf23bd06	-0.639603
54	0x3db429d7	0.08797043
55	0xbfa588b1	-1.293234

l3.bias f4 [7]
0	0xbf2fb243	-0.6863138
1	0x3ead67b3	0.3386818
2	0x3b14ef3a	0.0022725598
3	0x3e06e1f0	0.13172126
4	0xbac887fe	-0.0015299318
5	0x3dc3be03	0.09557726
6	0x3e2cdfbc	0.16882223
